Simulator/python/flows/model_state.pt (torch_old, 688430 bytes, 62 tensors)

base_dist_mean f4 [6]
0.0 0.0 0.0 0.0 0.0 0.0
00000000: 0000 0000 0000 0000 0000 0000 0000 0000
00000010: 0000 0000 0000 0000

base_dist_var f4 [6]
1.0 1.0 1.0 1.0 1.0 1.0
00000000: 0000 803f 0000 803f 0000 803f 0000 803f
00000010: 0000 803f 0000 803f

net.0.base_dist_mean f4 [6]
0.0 0.0 0.0 0.0 0.0 0.0
00000000: 0000 0000 0000 0000 0000 0000 0000 0000
00000010: 0000 0000 0000 0000

net.0.base_dist_var f4 [6]
1.0 1.0 1.0 1.0 1.0 1.0
00000000: 0000 803f 0000 803f 0000 803f 0000 803f
00000010: 0000 803f 0000 803f

net.0.net_input.weight f4 [100, 6]
-0.016308641 3.2991534e-37 -3.3968477e-37 -2.768285e-37 -1.1317875e-37 -2.5599077e-37 -0.29575285 -0.32224455
-4.63874e-37 -1.4869427e-37 4.65708e-37 -5.22409e-37 -0.30573478 -0.2139719 -0.30238435 3.4942117e-37
5.229534e-37 2.1260684e-37 -0.1680958 0.24788745 0.31237993 0.21608266 -6.828075e-38 3.2013065e-37
-0.166385 0.039219156 -0.17651986 0.30865023 0.22947669 -2.2894845e-37 0.26938596 2.4853728e-37
-2.9142084e-37 2.3099132e-37 3.6900224e-38 3.5719896e-37 -0.26741582 -0.12929171 1.966485e-37 -4.198278e-38
-2.1536567e-37 2.6266988e-37 -0.05988778 0.38332847 0.015701173 5.2104003e-37 1.0429941e-37 -2.0078449e-38
0.24873453 0.17863102 0.121971935 0.17757742 2.8466172e-37 5.803893e-38 -0.09995158 -0.42589483
-0.11021213 0.51682675 0.003278925 9.636667e-38 0.06699836 3.1192212e-38 -2.6658616e-37 2.933764e-39
-3.090143e-37 -5.5999425e-37 -0.04276874 -0.08849154 -3.4974553e-37 1.1413362e-37 1.9008838e-37 2.5345252e-37
-0.29103804 -0.4390871 0.36317846 -7.0393186e-37 2.6332725e-37 -3.4856e-37 -0.07116087 0.21730219
0.25189155 0.04029104 -3.1384507e-37 -2.1348762e-37 -0.32583833 -0.39002612 -0.42921504 0.61491495
0.09503714 3.1130094e-37 -0.22455242 -6.1888448e-37 -1.3318676e-37 -1.2687789e-37 -1.6566325e-37 1.6776171e-38
0.3864599 0.1824841 -1.154585e-37 -1.9758938e-37 -5.5369024e-37 3.5525026e-37 -0.02287282 -0.14330614
-0.05910449 -2.420885e-38 3.0983045e-37 2.1068265e-37 0.34686914 -0.112877555 0.18159594 -0.4273411
-5.238017e-38 -6.7461104e-37 -0.23758121 0.15198104 -0.5382302 -0.021548666 0.2656739 1.467412e-37
-0.076827526 -9.185332e-38 4.8987103e-37 1.6270147e-37 3.0230023e-37 -4.00584e-37 0.110595986 0.3617173
-5.4104667e-37 -2.3046263e-37 -6.922493e-37 6.393562e-37 -0.044949647 -0.48939857 -0.21503623 -4.974758e-39
-6.8158956e-37 1.9169797e-37 0.080626495 -0.12831615 0.03270051 -0.049667373 -9.3572893e-38 3.3118496e-37
0.14809377 -0.21458873 -0.35945576 0.1886388 -0.50781345 3.538773e-37 -0.14797246 -2.610447e-37
3.4191144e-38 -1.0471334e-37 3.3019726e-38 -6.666353e-37 -0.1964567 0.027979648 -2.0656621e-37 -4.4295386e-38
3.904216e-37 3.147635e-37 -0.12632905 0.20299435 0.3000594 -8.7005226e-38 6.757849e-37 2.43112e-37
0.2676955 0.22095563 -0.051883318 -0.35004175 -6.4612424e-37 1.4066727e-37 -0.2238294 -0.17548831
-0.49547458 0.10203825 0.35750082 -4.87027e-37 -0.0036878302 -5.2027113e-37 3.1191012e-37 -1.9244417e-37
6.1180198e-37 -2.2004607e-38 -0.21169403 0.026546787 -1.8328216e-37 -3.0526915e-37 -1.3464275e-37 -3.4440078e-37
0.16162919 0.2777212 -0.3807286 -4.8388136e-38 -4.3137088e-37 -2.1860444e-37 0.39035195 0.17340773
-0.06847191 0.12973592 -8.4538935e-38 -1.0786407e-37 -0.2583716 -0.015384994 0.0611625 -0.023399994
-0.14117704 5.179507e-37 -0.036515836 -3.5060678e-38 2.5003608e-37 -4.626976e-37 1.973056e-37 4.082663e-37
0.21049137 -0.18636106 -1.5721389e-37 -2.081824e-37 7.52534e-38 2.3977096e-37 0.043055497 -0.12523915
0.13487238 -4.11007e-37 -4.3605453e-37 -3.8707137e-38 0.1878021 -0.00412713 0.14031619 -0.09484388
3.910551e-37 -3.028358e-37 -0.12097307 -0.33138573 0.03513004 0.13818327 -0.46380392 -2.822397e-37
0.082434155 -3.8476685e-38 1.0653126e-37 -4.278969e-37 -4.025334e-37 2.4435197e-37 -0.30006742 -0.15629564
-3.8969344e-37 6.3379097e-37 2.8208246e-37 -2.7543104e-37 0.36503822 -0.37287292 -0.080373555 -3.7371193e-37
00000000: b399 85bc 5c87 e002 6f2d e782 5466 bc82
00000010: 0a0d 1a82 e237 ae82 eb6c 97be 3dfd a4be
00000020: 20d9 1d83 6464 4a82 e378 1e03 3ec4 3183
00000030: 4589 9cbe 731b 5bbe 1fd2 9abe c1cd ed02
00000040: abf3 3103 56b1 9002 4e21 2cbe 35d6 7d3e
00000050: 43f0 9f3e c644 5d3e bde0 b981 a0de d902
00000060: d460 2abe 44a4 203d 9fc1 34be 6707 9e3e
00000070: f0fb 6a3e 72d0 9b82 f5ec 893e 4d25 a902
00000080: ac54 c682 5d34 9d02 68e7 4801 d618 f302
00000090: baea 88be 0c65 04be 00d5 8502 7493 6481
000000a0: fe91 9282 8cc3 b202 e44c 75bd a143 c43e
000000b0: bf9f 803c fd4c 3103 0af7 0d02 8ca2 da80
000000c0: 44b4 7e3e 0deb 363e 6ccc f93d dbd6 353e
000000d0: 11bb c102 3bff 9d01 6ab3 ccbd e30e dabe
000000e0: e6b6 e1bd c24e 043f 3ce3 563b e22a 0302
000000f0: 7036 893d 99d3 2901 dc6d b582 24f2 1f00
00000100: e24d d282 618e 3e83 462e 2fbd 0d3b b5bd
00000110: 4406 ee82 c359 1b02 115e 8102 a87d ac02
00000120: f002 95be 06d0 e0be 87f2 b93e 1d89 6f83
00000130: 1436 b302 b737 ed82 cabc 91bd 7784 5e3e
00000140: eef7 803e 3808 253d 8697 d582 ca4a 9182
00000150: 48d4 a6be 81b1 c7be 13c2 dbbe 116b 1d3f
00000160: d5a2 c23d 46dc d302 12f1 65be 7198 5283
00000170: d048 3582 7eb2 2c82 387d 6182 24ad b600
00000180: 12de c53e 1ddd 3a3e 6a27 1d82 ed78 8682
00000190: 3969 3c83 53c5 f102 c85f bbbc d8be 12be
000001a0: 8d17 72bd 36ce 0381 14dc d202 1862 8f02
000001b0: d598 b13e 592c e7bd 49f4 393e 74cc dabe
000001c0: a797 8e81 e98e 6583 7d48 73be eba0 1b3e
000001d0: 74c9 09bf d486 b0bc 6906 883e d8bb 4702
000001e0: c057 9dbd 6c0c fa81 c9b1 2603 3075 5d02
000001f0: 21bc cd02 ca4f 0883 2680 e23d 0333 b93e
00000200: d01b 3883 41d8 9c82 6b8f 6b83 c88f 5903
00000210: 1f1d 38bd 7392 fabe 7532 5cbe 9a2b 3680
00000220: d3ee 6783 7f76 8202 811f a53d 4f65 03be
00000230: f8f0 053d 0470 4bbd caba fe81 8f64 e102
00000240: e5a5 173e 26bd 5bbe 960a b8be 882a 413e
00000250: 1000 02bf 1fd6 f002 1886 17be 67a8 b182
00000260: 8027 3a01 4687 0e82 c8c6 3301 20d8 6283
00000270: f22b 49be 9335 e53c e994 8c82 c22a 7181
00000280: 85da 0403 8937 d602 675c 01be c0dd 4f3e
00000290: 63a1 993e cbd9 ec81 2bf5 6503 1674 a502
000002a0: 620f 893e 3142 623e 9a83 54bd ac38 b3be
000002b0: 5cdd 5b83 6477 3f02 8933 65be 35b3 33be
000002c0: d8ae fdbe 6ef9 d03d 590a b73e 09ba 2583
000002d0: 86af 71bb 020a 3183 6846 d402 81f8 8282
000002e0: 782f 5003 e49b ef80 52c6 58be a678 d93c
000002f0: 8378 7982 63c1 cf82 2744 3782 1463 ea82
00000300: 1f82 253e 7931 8e3e dcee c2be 9cb9 8381
00000310: b4c9 1283 44c6 9482 36dc c73e cc91 313e
00000320: 003b 8cbd 7ed9 043e 0a23 e681 25d1 1282
00000330: 4849 84be 5811 7cbc 8885 7a3d 58b1 bfbc
00000340: b790 10be df3f 3003 a191 15bd 74e3 3e81
00000350: 6e2a aa02 a572 1d83 7c47 8602 03ed 0a03
00000360: 0d8b 573e 6fd5 3ebe 0cfd 5582 7dae 8d82
00000370: f7db cc01 fe2d a302 f65a 303d b13e 00be
00000380: fc1b 0a3e c2db 0b83 b561 1483 e0bd 5281
00000390: 324f 403e e03c 87bb 0caf 0f3e 823d c2bd
000003a0: b411 0503 7019 ce82 bbc0 f7bd 64ab a9be
000003b0: 84e4 0f3d ea7f 0d3e b577 edbe 1715 c082
000003c0: 3dd3 a83d ac7c 5181 ba00 1102 149b 1183
000003d0: 9bf9 0883 1e4c a602 70a2 99be f70b 20be
000003e0: 169b 0483 fbaa 5703 b2f9 bf02 db72 bb82
000003f0: 4ae6 ba3e 33e9 bebe e49a a4bd cd55 fe82

net.0.net_input.bias f4 [100]
-0.21238884 -0.36239713 0.14524178 0.0009668575 0.3773116 0.30841833 0.07745671 0.16006435
0.18568744 0.00038401003 -0.36170503 -0.18134548 -0.38939014 0.16219576 -0.3040102 -0.29852125
-0.025010921 0.27210817 0.19251364 0.10905537 -0.05037205 -0.36375254 -0.25007597 -0.37807605
-0.15697174 0.2584447 -0.2253291 -0.11844838 0.3817196 0.20364082 0.09022827 0.18290079
-0.045055788 -0.19329247 0.18625635 0.12114114 -0.19254258 0.2493285 -0.32677302 -0.012254124
0.1723625 0.10471703 -0.33548665 0.087950125 -0.08795322 0.13100766 0.19713451 -0.36770356
-0.19484118 0.36520103 -0.26763606 -0.1709732 -0.17635179 -0.110314526 0.01012177 0.14497553
0.22436404 -0.1493214 -0.046483904 -0.42294145 -0.15991436 -0.1372202 -0.0328741 0.035955846
-0.08677051 -0.10821644 0.2650162 -0.17396127 0.27217597 0.068651944 -0.011806098 -0.18682852
0.21473299 -0.045033578 -0.28522542 0.17928572 0.014577447 0.35205957 -0.48500863 0.100503325
-0.36701122 -0.13963795 -0.053106155 0.3173096 -0.12345508 -0.25232664 0.018640785 -0.07522334
-0.3389229 -0.002225692 0.21034522 -0.09895024 -0.2599403 -0.20584759 0.25313562 -0.07664631
0.27597538 -0.117894515 0.03246615 0.25312406
00000000: 767c 59be 1e8c b9be 43ba 143e b574 7d3a
00000010: fc2e c13e 02e9 9d3e a0a1 9e3d e9e7 233e
00000020: d924 3e3e f454 c939 6731 b9be a1b2 39be
00000030: 255e c7be a516 263e 3aa7 9bbe c7d7 98be
00000040: b4e3 ccbc c351 8b3e 4c22 453e 6c58 df3d
00000050: ec52 4ebd c63d babe f509 80be 2f93 c1be
00000060: 33bd 20be dd52 843e acbc 66be 1095 f2bd
00000070: c070 c33e 3887 503e 99c9 b83d 584a 3b3e
00000080: 6b8c 38bd 76ee 45be fcb9 3e3e d918 f83d
00000090: e229 45be f84f 7f3e cb4e a7be 85c5 48bc
000000a0: cc7f 303e e275 d63d e8c4 abbe 321f b43d
000000b0: d120 b4bd df26 063e a1dd 493e a443 bcbe
000000c0: 7284 47be a1fb ba3e 9807 89be 9913 2fbe
000000d0: 9095 34be 95ec e1bd c8d5 253c 7774 143e
000000e0: b0bf 653e b6e7 18be e865 3ebd c88b d8be
000000f0: 97c0 23be 7483 0cbe fea6 06bd 7046 133d
00000100: bdb4 b1bd 95a0 ddbd 34b0 873e e722 32be
00000110: a65a 8b3e 6499 8c3d 5d6e 41bc fa4f 3fbe
00000120: f7e2 5b3e 2175 38bd 1109 92be ad96 373e
00000130: 3fd6 6e3c 2741 b43e 0d53 f8be b0d4 cd3d
00000140: e5e8 bbbe 40fd 0ebe d785 59bd 6776 a23e
00000150: 04d6 fcbd f530 81be 8fb4 983c b20e 9abd
00000160: 4d87 adbe eadc 11bb bd64 573e 6ca6 cabd
00000170: e516 85be b6c9 52be fe9a 813e bef8 9cbd
00000180: a54c 8d3e ae72 f1bd 3afb 043d 7a99 813e

net.0.net_input.cond_weight f4 [100, 101]
-0.023511335 -0.044933 -0.02774728 0.012724137 -0.044007838 0.027269782 0.10141715 0.014078984
-0.05717627 0.1867549 -0.053758163 -0.07761795 -0.023721043 -0.1042547 0.037363764 0.025300916
0.03754412 0.0061282623 0.071823776 0.096871525 0.058098737 0.14706452 0.14863634 0.03801912
0.011987002 -0.07710333 -0.047892287 -0.018629467 -0.021343881 0.03387541 0.086378366 0.10078592
0.036800057 0.016664226 0.101359785 0.019440312 -0.03451038 -0.017541489 0.04171745 0.003619233
0.0632467 -0.058209106 0.013037874 -0.055579882 0.039311156 -0.011597819 -0.023620348 -0.051434636
-0.07518273 -0.06876297 -0.104845986 0.18725663 -0.025371155 -0.098143764 0.016343445 -0.013280377
0.059703212 0.0046290695 0.0738728 0.049442243 0.022237517 0.08375476 -0.0032087 0.012981103
0.07125597 0.07778762 -0.012024415 0.034442134 0.011526058 0.013070861 -0.00031672596 0.048932567
0.02052435 0.01686287 -0.00091202557 0.037259787 0.073496796 0.07844343 -0.0046716197 0.024342168
-0.058056302 0.018179536 0.066243425 0.09135503 0.15974179 0.097918086 0.16140409 0.06618238
-0.0033952373 0.030883022 -8.078549e-05 0.0066333897 0.09038366 -0.0121989995 0.05943641 0.04445418
0.031782407 0.12358834 0.09060083 0.053784937 0.23112497 -0.05221627 -0.03358739 -0.049988423
0.09953051 0.15129083 -0.03131149 -0.0005960426 0.082865894 -0.022339249 -0.004559332 0.09174032
-0.09413983 0.054479424 0.0574818 0.030858079 0.080506876 0.103546746 0.030762233 0.12728164
0.036515385 0.010860988 0.016355636 0.02820283 0.04830946 0.06654694 -0.009355508 -0.0004668556
0.02799351 0.05999308 0.029158179 0.0020274469 0.07040688 -0.0052124104 0.0013759607 0.085119925
0.040184367 0.040679447 -0.016731847 0.006569033 0.007323038 0.09628323 -0.039872143 0.11388794
0.017840242 -0.08851349 0.007940579 0.027531343 0.0903418 0.028112011 -0.08184172 -0.11130297
0.08394773 0.13935596 0.08907944 -0.017931646 0.05888153 0.07062473 0.08762489 0.10706511
0.08077851 0.07601465 0.020996954 0.06462187 0.042702965 0.13271868 0.05521514 0.03408165
-0.014744768 -0.0011253061 0.017366769 0.07484506 0.0038810952 0.027729973 0.030353023 0.006839133
0.011202611 0.011257267 0.004022384 0.03429126 0.069332406 0.1352797 0.06307105 0.061093915
0.0729501 0.04103506 0.052746482 0.039896082 0.037933357 0.08009649 0.005062595 0.090897486
0.046832338 0.07093265 0.06033604 0.05882833 -0.030367123 -0.016971942 0.10116385 0.013360891
0.10578891 0.02366625 -0.0149945365 0.10422666 -0.060917336 -0.028547518 0.08327594 0.00867429
0.10126346 0.08192947 0.022236068 0.05686257 0.1150308 -0.060224205 -0.08292993 -0.018915424
-0.014206213 -0.018228667 0.07563127 0.019905077 0.018487142 -0.05947179 -0.088350825 -0.08131385
0.07070483 -0.012243387 0.031603906 -0.016672332 0.070064545 -0.011052857 0.021821646 -0.052362833
0.016516613 0.030285133 0.027110994 0.01409944 0.025540061 0.03857602 0.06814162 -0.055424623
0.0051189675 0.061650183 0.029165082 0.0077298703 0.02204495 0.06508521 -0.027356802 -0.03526135
-0.030159162 0.0032733716 0.025202168 0.079947315 -0.058351867 0.028327536 0.094019964 0.049335912
00000000: d89a c0bc aa0b 38bd 444e e3bc e678 503c
00000010: 9041 34bd e164 df3c cbb3 cf3d 8aab 663c
00000020: aa31 6abd ad3c 3f3e 8531 5cbd 29f6 9ebd
00000030: a252 c2bc 7d83 d5bd bf0a 193d de43 cf3c
00000040: ddc7 193d 97cf c83b 5818 933d 9464 c63d
00000050: f1f8 6d3d 1598 163e 2034 183e f0b9 1b3d
00000060: 2165 443c 5ae8 9dbd b42a 44bd d39c 98bc
00000070: 5dd9 aebc f1c0 0a3d 24e7 b03d d968 ce3d
00000080: a8bb 163d 6a83 883c b895 cf3d 4a41 9f3c
00000090: c25a 0dbd 2bb3 8fbc ebdf 2a3d a730 6d3b
000000a0: 7c87 813d ac6c 6ebd cf9c 553c bba7 63bd
000000b0: bc04 213d c704 3ebc 767f c1bc 20ad 52bd
000000c0: 67f9 99bd 9ad3 8cbd 7eb9 d6bd 34c0 3f3e
000000d0: 2bd7 cfbc 99ff c8bd b0e2 853c f095 59bc
000000e0: 5b8b 743d 73af 973b 9f4a 973d f383 4a3d
000000f0: 742b b63c 9e87 ab3d 0e49 52bb b1ae 543c
00000100: a6ee 913d 1e4f 9f3d 0d02 45bc 3213 0d3d
00000110: cbd7 3c3c 2a27 563c 3d0e a6b9 846d 483d
00000120: af22 a83c 0024 8a3c 0015 6fba b89d 183d
00000130: 7d85 963d f3a6 a03d 6314 99bb 3a69 c73c
00000140: 72cc 6dbd 40ed 943c a2aa 873d 5918 bb3d
00000150: 5a93 233e 4789 c83d 1d47 253e a18a 873d
00000160: a182 5ebb 64fe fc3c 616b a9b8 e85c d93b
00000170: 111b b93d 50de 47bc 9873 733d 9615 363d
00000180: 452e 023d e21b fd3d ee8c b93d 984d 5c3d
00000190: 06ac 6c3e bae0 55bd ee92 09bd a9c0 4cbd
000001a0: a7d6 cb3d fceb 1a3e 7a40 00bd be3f 1cba
000001b0: 98b5 a93d cd00 b7bc 7366 95bb 59e2 bb3d
000001c0: 62cc c0bd d125 5f3d 0972 6b3d 15ca fc3c
000001d0: cae0 a43d 5110 d43d 1401 fc3c 1e56 023e
000001e0: 2891 153d 49f2 313c 41fc 853c 9f09 e73c
000001f0: 24e0 453d c349 883d d847 19bc 4cc4 f4b9
00000200: a552 e53c 4ebb 753d 22dd ee3c eade 043b
00000210: 7b31 903d decc aabb 9459 b43a 5b53 ae3d
00000220: 5d98 243d 7e9f 263d 3a11 89bc 0b41 d73b
00000230: 18f6 ef3b 2430 c53d f950 23bd 153e e93d
00000240: b325 923c 9046 b5bd 3419 023c 6989 e13c
00000250: 1f05 b93d 294b e63c a29c a7bd d0f2 e3bd
00000260: caec ab3d 54b3 0e3e 486f b63d 63e5 92bc
00000270: c22d 713d b3a3 903d ae74 b33d f444 db3d
00000280: 346f a53d 92ad 9b3d ce01 ac3c 7958 843d
00000290: 4ee9 2e3d 68e7 073e 4529 623d 3399 0b3d
000002a0: 0a94 71bc 027f 93ba c144 8e3c 5e48 993d
000002b0: f959 7e3b f829 e33c e7a6 f83c ce1a e03b
000002c0: 288b 373c 6670 383c 34ce 833b fe74 0c3d
000002d0: 26fe 8d3d c386 0a3e 652b 813d 9d3d 7a3d
000002e0: dd66 953d 6114 283d b20c 583d 136a 233d
000002f0: 0260 1b3d a109 a43d 20e4 a53b 7628 ba3d
00000300: 44d3 3f3d 2345 913d ec22 773d faf5 703d
00000310: 79c4 f8bc be08 8bbc fe2e cf3d a3e7 5a3c
00000320: dba7 d83d b9df c13c a5ab 75bc ca74 d53d
00000330: 7584 79bd 7cdc e9bc 938c aa3d 9c1e 0e3c
00000340: 3863 cf3d a3ca a73d 6a28 b63c bae8 683d
00000350: 4595 eb3d a8ad 76bd 2bd7 a9bd 85f4 9abc
00000360: 2dc1 68bc 4954 95bc 91e4 9a3d f90f a33c
00000370: 5972 973c b198 73bd 47f1 b4bd e087 a6bd
00000380: b2cd 903d 7d98 48bc 1973 013d 6a94 88bc
00000390: 007e 8f3d 0b17 35bc 4fc3 b23c 697a 56bd
000003a0: d94d 873c 8718 f83c e017 de3c 5601 673c
000003b0: 6439 d13c e401 1e3d d58d 8b3d ee04 63bd
000003c0: 03bd a73b e784 7c3d 9ceb ee3c da4a fd3b
000003d0: 9c97 b43c 654b 853d 5f1b e0bc 356e 10bd
000003e0: 5910 f7bc 1086 563b c774 ce3c 6bbb a33d
000003f0: 5e02 6fbd 260f e83c 8a8d c03d 7414 4a3d

net.0.net_input.mask f4 [100, 6]
1.0 0.0 0.0 0.0 0.0 0.0 1.0 1.0
0.0 0.0 0.0 0.0 1.0 1.0 1.0 0.0
0.0 0.0 1.0 1.0 1.0 1.0 0.0 0.0
1.0 1.0 1.0 1.0 1.0 0.0 1.0 0.0
0.0 0.0 0.0 0.0 1.0 1.0 0.0 0.0
0.0 0.0 1.0 1.0 1.0 0.0 0.0 0.0
1.0 1.0 1.0 1.0 0.0 0.0 1.0 1.0
1.0 1.0 1.0 0.0 1.0 0.0 0.0 0.0
0.0 0.0 1.0 1.0 0.0 0.0 0.0 0.0
1.0 1.0 1.0 0.0 0.0 0.0 1.0 1.0
1.0 1.0 0.0 0.0 1.0 1.0 1.0 1.0
1.0 0.0 1.0 0.0 0.0 0.0 0.0 0.0
1.0 1.0 0.0 0.0 0.0 0.0 1.0 1.0
1.0 0.0 0.0 0.0 1.0 1.0 1.0 1.0
0.0 0.0 1.0 1.0 1.0 1.0 1.0 0.0
1.0 0.0 0.0 0.0 0.0 0.0 1.0 1.0
0.0 0.0 0.0 0.0 1.0 1.0 1.0 0.0
0.0 0.0 1.0 1.0 1.0 1.0 0.0 0.0
1.0 1.0 1.0 1.0 1.0 0.0 1.0 0.0
0.0 0.0 0.0 0.0 1.0 1.0 0.0 0.0
0.0 0.0 1.0 1.0 1.0 0.0 0.0 0.0
1.0 1.0 1.0 1.0 0.0 0.0 1.0 1.0
1.0 1.0 1.0 0.0 1.0 0.0 0.0 0.0
0.0 0.0 1.0 1.0 0.0 0.0 0.0 0.0
1.0 1.0 1.0 0.0 0.0 0.0 1.0 1.0
1.0 1.0 0.0 0.0 1.0 1.0 1.0 1.0
1.0 0.0 1.0 0.0 0.0 0.0 0.0 0.0
1.0 1.0 0.0 0.0 0.0 0.0 1.0 1.0
1.0 0.0 0.0 0.0 1.0 1.0 1.0 1.0
0.0 0.0 1.0 1.0 1.0 1.0 1.0 0.0
1.0 0.0 0.0 0.0 0.0 0.0 1.0 1.0
0.0 0.0 0.0 0.0 1.0 1.0 1.0 0.0
00000000: 0000 803f 0000 0000 0000 0000 0000 0000
00000010: 0000 0000 0000 0000 0000 803f 0000 803f
00000020: 0000 0000 0000 0000 0000 0000 0000 0000
00000030: 0000 803f 0000 803f 0000 803f 0000 0000
00000040: 0000 0000 0000 0000 0000 803f 0000 803f
00000050: 0000 803f 0000 803f 0000 0000 0000 0000
00000060: 0000 803f 0000 803f 0000 803f 0000 803f
00000070: 0000 803f 0000 0000 0000 803f 0000 0000
00000080: 0000 0000 0000 0000 0000 0000 0000 0000
00000090: 0000 803f 0000 803f 0000 0000 0000 0000
000000a0: 0000 0000 0000 0000 0000 803f 0000 803f
000000b0: 0000 803f 0000 0000 0000 0000 0000 0000
000000c0: 0000 803f 0000 803f 0000 803f 0000 803f
000000d0: 0000 0000 0000 0000 0000 803f 0000 803f
000000e0: 0000 803f 0000 803f 0000 803f 0000 0000
000000f0: 0000 803f 0000 0000 0000 0000 0000 0000
00000100: 0000 0000 0000 0000 0000 803f 0000 803f
00000110: 0000 0000 0000 0000 0000 0000 0000 0000
00000120: 0000 803f 0000 803f 0000 803f 0000 0000
00000130: 0000 0000 0000 0000 0000 803f 0000 803f
00000140: 0000 803f 0000 803f 0000 0000 0000 0000
00000150: 0000 803f 0000 803f 0000 803f 0000 803f
00000160: 0000 803f 0000 0000 0000 803f 0000 0000
00000170: 0000 0000 0000 0000 0000 0000 0000 0000
00000180: 0000 803f 0000 803f 0000 0000 0000 0000
00000190: 0000 0000 0000 0000 0000 803f 0000 803f
000001a0: 0000 803f 0000 0000 0000 0000 0000 0000
000001b0: 0000 803f 0000 803f 0000 803f 0000 803f
000001c0: 0000 0000 0000 0000 0000 803f 0000 803f
000001d0: 0000 803f 0000 803f 0000 803f 0000 0000
000001e0: 0000 803f 0000 0000 0000 0000 0000 0000
000001f0: 0000 0000 0000 0000 0000 803f 0000 803f
00000200: 0000 0000 0000 0000 0000 0000 0000 0000
00000210: 0000 803f 0000 803f 0000 803f 0000 0000
00000220: 0000 0000 0000 0000 0000 803f 0000 803f
00000230: 0000 803f 0000 803f 0000 0000 0000 0000
00000240: 0000 803f 0000 803f 0000 803f 0000 803f
00000250: 0000 803f 0000 0000 0000 803f 0000 0000
00000260: 0000 0000 0000 0000 0000 0000 0000 0000
00000270: 0000 803f 0000 803f 0000 0000 0000 0000
00000280: 0000 0000 0000 0000 0000 803f 0000 803f
00000290: 0000 803f 0000 0000 0000 0000 0000 0000
000002a0: 0000 803f 0000 803f 0000 803f 0000 803f
000002b0: 0000 0000 0000 0000 0000 803f 0000 803f
000002c0: 0000 803f 0000 803f 0000 803f 0000 0000
000002d0: 0000 803f 0000 0000 0000 0000 0000 0000
000002e0: 0000 0000 0000 0000 0000 803f 0000 803f
000002f0: 0000 0000 0000 0000 0000 0000 0000 0000
00000300: 0000 803f 0000 803f 0000 803f 0000 0000
00000310: 0000 0000 0000 0000 0000 803f 0000 803f
00000320: 0000 803f 0000 803f 0000 0000 0000 0000
00000330: 0000 803f 0000 803f 0000 803f 0000 803f
00000340: 0000 803f 0000 0000 0000 803f 0000 0000
00000350: 0000 0000 0000 0000 0000 0000 0000 0000
00000360: 0000 803f 0000 803f 0000 0000 0000 0000
00000370: 0000 0000 0000 0000 0000 803f 0000 803f
00000380: 0000 803f 0000 0000 0000 0000 0000 0000
00000390: 0000 803f 0000 803f 0000 803f 0000 803f
000003a0: 0000 0000 0000 0000 0000 803f 0000 803f
000003b0: 0000 803f 0000 803f 0000 803f 0000 0000
000003c0: 0000 803f 0000 0000 0000 0000 0000 0000
000003d0: 0000 0000 0000 0000 0000 803f 0000 803f
000003e0: 0000 0000 0000 0000 0000 0000 0000 0000
000003f0: 0000 803f 0000 803f 0000 803f 0000 0000

net.0.net.1.weight f4 [100, 100]
-0.056243267 3.1926449e-37 4.035113e-37 8.8383246e-38 5.019e-38 0.054995436 1.7470152e-37 1.959358e-37
-5.9629294e-37 -3.615214e-37 0.042970214 -3.565614e-37 -2.041994e-37 -2.6003647e-37 4.5644529e-38 -0.122497626
-4.445861e-37 3.1398697e-37 2.2338944e-37 -3.0875426e-37 -0.07174644 -2.043517e-37 1.2699739e-37 -5.2458198e-37
-5.739215e-38 0.007857836 3.343665e-37 -4.003128e-37 -7.023965e-37 -2.9843101e-37 0.041723482 2.0041362e-37
7.235383e-38 -1.242444e-37 6.824121e-37 -0.02354414 -2.0573703e-37 1.955225e-37 -4.3767367e-37 6.99329e-37
-0.06421121 -1.1005222e-37 5.1749347e-37 -7.4858513e-38 -2.599549e-37 -0.07924819 -1.5356591e-37 3.5586167e-37
-1.4745443e-37 -4.6145507e-37 0.01027985 -4.1075125e-37 -3.3441862e-37 -1.0918391e-38 -1.8704992e-37 -0.058299508
-5.5173318e-37 -5.1507503e-37 3.713677e-37 -3.2642222e-38 0.045958094 4.4531915e-37 -2.8952555e-37 -1.5198992e-37
5.172985e-38 0.037951186 -4.4074464e-37 -6.140368e-37 -4.701005e-37 -2.0354387e-37 -0.0069029997 -3.4964574e-37
6.160323e-37 2.48222e-37 -4.9979886e-37 0.0047260597 -3.061778e-37 6.199842e-38 -2.785372e-37 -2.8197094e-37
0.016389744 -1.288595e-37 -9.1535495e-38 -4.1290983e-37 -4.766764e-38 0.0013988343 -4.1477192e-37 3.6648517e-38
-4.1445516e-37 -3.037647e-37 0.028264934 5.593186e-37 -4.9058e-39 -1.5108801e-37 -2.8969471e-37 0.047025383
1.1661516e-37 -6.540169e-37 9.883958e-39 4.8575614e-37 -0.051091712 -0.055952992 1.8765937e-37 2.0986263e-37
-7.5222654e-38 -0.057686195 0.035022415 2.8815781e-37 -2.6832502e-37 6.072798e-37 0.042785704 0.013337833
2.019186e-37 -1.8555999e-37 4.242722e-37 -0.012504958 -0.12496784 -1.292157e-37 -1.9583861e-37 -2.6923374e-37
0.027770502 0.023562154 1.4137933e-37 6.8719834e-38 1.5652106e-37 0.088054374 0.08463641 -1.980731e-37
-6.808711e-38 1.3857717e-37 -0.014285335 0.049943626 -1.5630252e-37 -2.8063264e-37 6.887383e-38 0.05286873
0.053404815 -3.6454746e-37 -1.4905057e-37 -3.1141883e-37 -0.015051796 -0.051757008 -1.0649819e-37 2.2878868e-37
-2.2381828e-37 -0.080519594 -0.11560727 4.314261e-37 5.7017494e-37 5.3362443e-38 0.010164074 0.036004804
2.443022e-37 3.0870762e-38 2.1692652e-37 -0.016426008 -0.0069561703 -4.756445e-37 -1.4790089e-37 4.363526e-37
0.06363877 -0.0030999526 6.7261134e-37 -5.9865775e-37 -3.8469176e-37 -0.06436431 -0.06700929 2.396455e-37
3.7638823e-37 -3.550595e-38 -0.08328606 -0.04729823 4.6927356e-37 7.3987057e-38 2.6182533e-37 0.04407403
-0.028284451 -2.3250106e-37 1.3822139e-37 3.8603015e-37 0.009975259 0.06122745 1.9193157e-37 6.6271557e-37
1.7287969e-37 0.013708603 0.0039143316 -5.219319e-37 -4.8714803e-37 -2.7845664e-37 -0.003984822 0.06901718
-1.4830171e-37 -2.1371694e-37 -1.7530398e-37 -0.019791916 0.02366028 2.7644493e-37 -6.656247e-37 4.804184e-37
-0.04621216 -0.19400756 -0.17386869 -3.1200921e-37 -3.6784764e-37 -0.07085919 -0.045436516 0.035840087
1.9048166e-37 -3.0156916e-37 -0.04415043 -0.055140946 -0.006181586 -3.3569887e-37 2.044634e-37 -0.05813471
-0.15052557 0.049752727 2.5049611e-37 3.8507067e-37 -0.010571551 0.09625816 -0.11267786 -1.7723339e-37
5.207185e-37 0.016526982 0.0060532214 -0.07369827 2.9477053e-37 -8.434437e-38 -0.08221742 0.007617095
0.08372781 1.7091814e-37 -5.727596e-37 -0.07754522 -0.014206264 0.108637534 -5.90454e-37 -4.677454e-37
-0.008336153 0.06608739 0.013825339 -4.527851e-38 1.6527876e-37 -0.09210966 0.08833674 -0.124217875
5.4651272e-37 -5.94847e-37 0.07831374 -0.2063927 0.07669033 6.3436234e-37 -4.016617e-37 0.0030942946
00000000: 575f 66bd b847 d902 cb4e 0903 229a f001
00000010: 53a1 8801 e542 613d 98ca 6d02 d558 8502
00000020: 71e8 4a83 e909 f682 8901 303d c2a9 f282
00000030: 8ef8 8a82 bef8 b082 3083 7801 09e0 fabd
00000040: e948 1783 3fb0 d502 ee07 9802 9420 d282
00000050: ccef 92bd 1613 8b82 22dc 2c02 8981 3283
00000060: 7e3c 9c81 27be 003c dc8e e302 2a38 0883
00000070: 5d03 6f83 041a cb82 3ee6 2a3d fa64 8802
00000080: 43f7 c401 db1c 2982 7a36 6803 a4df c0bc
00000090: 7204 8c82 d310 8502 c1ee 1483 26f8 6d03
000000a0: 2b81 83bd 9acb 1582 0a18 3003 c5c8 cb81
000000b0: 88ea b082 e04c a2bd e905 5182 d92f f202
000000c0: 5fb4 4882 6806 1d83 d16c 283c 7bc5 0b83
000000d0: f197 e382 08e4 7680 6299 7e82 77cb 6ebd
000000e0: bdbe 3b83 5d45 2f83 61bd fc02 9eb8 3181
000000f0: 8e3e 3c3d c588 1703 770a c582 c2e0 4e82
00000100: 72d2 8c01 b472 1b3d 46fa 1583 26f2 5083
00000110: 87f7 1f83 5886 8a82 8f32 e2bb e1f4 ed82
00000120: fb9f 5103 5fee a802 9f12 2a83 10dd 9a3b
00000130: b25f d082 98c6 a801 0690 bd82 44e6 bf82
00000140: c943 863c fc64 2f82 ee2e f981 8581 0c83
00000150: 7fc3 8181 1759 b73a bb23 0d83 9488 4701
00000160: 2308 0d83 46bb ce82 dd8b e73c 8653 3e03
00000170: 606b 3580 7da6 4d82 f027 c582 b09d 403d
00000180: 74ba 1e02 e88c 5e83 74a0 6b00 544b 2503
00000190: 8b45 51bd f72e 65bd bf6d 7f02 3ad3 8e02
000001a0: 8ac6 cc81 5c48 6cbd aa73 0f3d 2c1c c402
000001b0: d09c b682 88a5 4e03 1040 2f3d ed86 5a3c
000001c0: 2e6b 8902 3892 7c82 525f 1003 98e1 4cbc
000001d0: 24ef ffbd 1ae1 2f82 e647 8582 223b b782
000001e0: f77e e33c 6b05 c13c 826f 4002 bc12 bb01
000001f0: a10b 5502 da55 b43d db55 ad3d 33cd 8682
00000200: ca59 b981 199f 3c02 0a0d 6abc b091 4c3d
00000210: 7bbf 5482 1afd be82 0e7e bb01 e28c 583d
00000220: 02bf 5a3d 2019 f882 8be0 4a82 d0f0 d382
00000230: cf9b 76bc 28ff 53bd 34f5 1082 9cb4 9b02
00000240: a552 9882 75e7 a4bd 81c3 ecbd 84ce 1203
00000250: 3e05 4203 3244 9101 3787 263c c679 133d
00000260: 7243 a602 9013 2801 eea1 9302 d68f 86bc
00000270: 96f0 e3bb 7bda 2183 f04f 4982 ac7b 1403
00000280: 0b55 823d 9328 4bbb b6e0 6403 72b6 4b83
00000290: 61e7 0283 6fd1 83bd 2b3c 89bd 2218 a302
000002a0: 0a14 0003 1250 4181 e291 aabd cabb 41bd
000002b0: 7eaf 1f03 7469 c901 6830 b202 f886 343d
000002c0: cbb4 e7bc 663b 9e82 2023 3c02 f85b 0303
000002d0: 456f 233c a2c9 7a3d 329f 8202 ab82 6103
000002e0: c84f 6b02 0c9a 603c cb43 803b ae9a 3183
000002f0: 94c4 2583 fd81 bd82 1c93 82bb e158 8d3d
00000300: 9bdb 4982 be72 9182 869c 6e82 a822 a2bc
00000310: 34d3 c13c 8023 bc02 1780 6283 587a 2303
00000320: f648 3dbd eba9 46be a20a 32be ac57 d482
00000330: 1958 fa82 9f1e 91bd a41b 3abd 0ecd 123d
00000340: 96a2 8102 c23c cd82 15d7 34bd 79db 61bd
00000350: e78e cabb fe76 e482 8c26 8b02 a91e 6ebd
00000360: 6023 1abe 84c9 4b3d 947a aa02 6308 0303
00000370: 4c34 2dbc 0023 c53d a6c3 e6bd d33c 7182
00000380: fb30 3103 9863 873c 1a5a c63b 1eef 96bd
00000390: 459c c802 729b e581 9b61 a8bd d398 f93b
000003a0: 7c79 ab3d 48a4 6802 66e6 4283 07d0 9ebd
000003b0: 64c1 68bc 5b7d de3d cceb 4883 5f2a 1f83
000003c0: 5c94 08bc d358 873d ad83 623c 0885 7681
000003d0: 3ef7 6002 fda3 bcbd e5e9 b43d f165 febd
000003e0: f9f7 3903 7b6a 4a83 f462 a03d 9c58 53be
000003f0: d20f 9d3d c1dc 5703 abad 0883 a6c9 4a3b

net.0.net.1.bias f4 [100]
0.0114753945 0.06934735 0.04972555 0.004552594 0.044781156 -0.049636498 -4.2689332e-17 -0.09150025
0.09489021 0.024130102 0.008208739 -0.034194812 0.08109872 0.026177311 0.08798369 -0.0072154254
-0.04983667 0.047521845 -0.06563755 -0.019912893 -9.2766837e-17 -0.030582562 -0.031687327 -3.495062e-05
4.4543347e-09 0.047679853 0.024894174 0.006476301 -0.008965647 0.009357409 0.017275125 0.037101753
0.053724345 -0.0104280375 0.11536486 -0.00014300183 -0.027588526 0.13679005 -0.079871416 0.07565029
-0.016101185 -3.9028642e-22 -0.13541153 0.011587062 0.0024650954 0.11642879 -0.20533767 -0.028224321
-0.027041845 0.012007273 -0.034602705 -0.15229799 -0.020228248 0.029983178 -0.016751884 0.056264576
0.04482327 -0.047086984 0.004698376 0.0621599 -0.044741202 0.031766478 -0.008126667 0.09634568
0.07593677 0.06287572 -0.0025405074 -0.0023946064 0.074342966 -0.002216525 -0.0068002907 -0.11014806
-0.0205554 0.019299103 -0.045015518 0.057117417 0.120354585 -0.13440233 0.10903524 -0.09201037
0.04681512 -0.049704652 0.18073028 0.042856324 -0.00026175004 -0.02015653 1.3285255e-05 -0.15380748
0.079635695 0.10720435 -0.005197348 0.01294998 0.05916973 0.07119672 0.058801875 -0.06306656
-0.17506288 0.019757288 0.3246628 -0.012855572
00000000: 4b03 3c3c fc05 8e3d 05ad 4b3d ed2d 953b
00000010: 726c 373d a44f 4bbd abde 44a4 7c64 bbbd
00000020: cc55 c23d 7eac c53c f27d 063c dc0f 0cbd
00000030: 1617 a63d cd71 d63c cb30 b43d 606f ecbb
00000040: 8921 4cbd 44a6 423d fb6c 86bd 5d20 a3bc
00000050: e0e7 d5a4 4888 fabc 92ca 01bd f197 12b8
00000060: be0c 9931 f34b 433d deee cb3c 2637 d43b
00000070: a6e4 12bc d14f 193c 9084 8d3c 02f8 173d
00000080: 0f0e 5c3d 5cda 2abc 6944 ec3d c3f2 15b9
00000090: 5501 e2bc b112 0c3e a093 a3bd 8aee 9a3d
000000a0: a2e6 83bc e6e9 eb9b 52a9 0abe a9d7 3d3c
000000b0: 708d 213b 3872 ee3d 0a44 52be b136 e7bc
000000c0: dc86 ddbc 27ba 443c 91bb 0dbd 01f4 1bbe
000000d0: b6b5 a5bc 489f f53c 3f3b 89bc af75 663d
000000e0: 9b98 373d 48de 40bd d6f4 993b 619b 7e3d
000000f0: 8d42 37bd 911d 023d b625 05bc e250 c53d
00000100: bd84 9b3d fcc4 803d a47e 26bb d4ee 1cbb
00000110: 2041 983d 1e43 11bb f9d4 debb 4e95 e1bd
00000120: cc63 a8bc 2719 9e3c 3162 38bd f4f3 693d
00000130: 777c f63d c4a0 09be de4d df3d ef6f bcbd
00000140: 36c1 3f3d 1b97 4bbd 5c11 393e 1d8a 2f3d
00000150: 7f3b 89b9 4f1f a5bc bce3 5e37 b57f 1dbe
00000160: 0a18 a33d f48d db3d 844e aabb 272c 543c
00000170: f55b 723d 96cf 913d 3cda 703d 0a29 81bd
00000180: af43 33be 09da a13c 343a a63e 2da0 52bc

net.0.net.1.mask f4 [100, 100]
1.0 0.0 0.0 0.0 0.0 1.0 0.0 0.0
0.0 0.0 1.0 0.0 0.0 0.0 0.0 1.0
0.0 0.0 0.0 0.0 1.0 0.0 0.0 0.0
0.0 1.0 0.0 0.0 0.0 0.0 1.0 0.0
0.0 0.0 0.0 1.0 0.0 0.0 0.0 0.0
1.0 0.0 0.0 0.0 0.0 1.0 0.0 0.0
0.0 0.0 1.0 0.0 0.0 0.0 0.0 1.0
0.0 0.0 0.0 0.0 1.0 0.0 0.0 0.0
0.0 1.0 0.0 0.0 0.0 0.0 1.0 0.0
0.0 0.0 0.0 1.0 0.0 0.0 0.0 0.0
1.0 0.0 0.0 0.0 0.0 1.0 0.0 0.0
0.0 0.0 1.0 0.0 0.0 0.0 0.0 1.0
0.0 0.0 0.0 0.0 1.0 1.0 0.0 0.0
0.0 1.0 1.0 0.0 0.0 0.0 1.0 1.0
0.0 0.0 0.0 1.0 1.0 0.0 0.0 0.0
1.0 1.0 0.0 0.0 0.0 1.0 1.0 0.0
0.0 0.0 1.0 1.0 0.0 0.0 0.0 1.0
1.0 0.0 0.0 0.0 1.0 1.0 0.0 0.0
0.0 1.0 1.0 0.0 0.0 0.0 1.0 1.0
0.0 0.0 0.0 1.0 1.0 0.0 0.0 0.0
1.0 1.0 0.0 0.0 0.0 1.0 1.0 0.0
0.0 0.0 1.0 1.0 0.0 0.0 0.0 1.0
1.0 0.0 0.0 0.0 1.0 1.0 0.0 0.0
0.0 1.0 1.0 0.0 0.0 0.0 1.0 1.0
0.0 0.0 0.0 1.0 1.0 0.0 0.0 0.0
1.0 1.0 1.0 0.0 0.0 1.0 1.0 1.0
0.0 0.0 1.0 1.0 1.0 0.0 0.0 1.0
1.0 1.0 0.0 0.0 1.0 1.0 1.0 0.0
0.0 1.0 1.0 1.0 0.0 0.0 1.0 1.0
1.0 0.0 0.0 1.0 1.0 1.0 0.0 0.0
1.0 1.0 1.0 0.0 0.0 1.0 1.0 1.0
0.0 0.0 1.0 1.0 1.0 0.0 0.0 1.0
00000000: 0000 803f 0000 0000 0000 0000 0000 0000
00000010: 0000 0000 0000 803f 0000 0000 0000 0000
00000020: 0000 0000 0000 0000 0000 803f 0000 0000
00000030: 0000 0000 0000 0000 0000 0000 0000 803f
00000040: 0000 0000 0000 0000 0000 0000 0000 0000
00000050: 0000 803f 0000 0000 0000 0000 0000 0000
00000060: 0000 0000 0000 803f 0000 0000 0000 0000
00000070: 0000 0000 0000 0000 0000 803f 0000 0000
00000080: 0000 0000 0000 0000 0000 0000 0000 803f
00000090: 0000 0000 0000 0000 0000 0000 0000 0000
000000a0: 0000 803f 0000 0000 0000 0000 0000 0000
000000b0: 0000 0000 0000 803f 0000 0000 0000 0000
000000c0: 0000 0000 0000 0000 0000 803f 0000 0000
000000d0: 0000 0000 0000 0000 0000 0000 0000 803f
000000e0: 0000 0000 0000 0000 0000 0000 0000 0000
000000f0: 0000 803f 0000 0000 0000 0000 0000 0000
00000100: 0000 0000 0000 803f 0000 0000 0000 0000
00000110: 0000 0000 0000 0000 0000 803f 0000 0000
00000120: 0000 0000 0000 0000 0000 0000 0000 803f
00000130: 0000 0000 0000 0000 0000 0000 0000 0000
00000140: 0000 803f 0000 0000 0000 0000 0000 0000
00000150: 0000 0000 0000 803f 0000 0000 0000 0000
00000160: 0000 0000 0000 0000 0000 803f 0000 0000
00000170: 0000 0000 0000 0000 0000 0000 0000 803f
00000180: 0000 0000 0000 0000 0000 0000 0000 0000
00000190: 0000 803f 0000 803f 0000 0000 0000 0000
000001a0: 0000 0000 0000 803f 0000 803f 0000 0000
000001b0: 0000 0000 0000 0000 0000 803f 0000 803f
000001c0: 0000 0000 0000 0000 0000 0000 0000 803f
000001d0: 0000 803f 0000 0000 0000 0000 0000 0000
000001e0: 0000 803f 0000 803f 0000 0000 0000 0000
000001f0: 0000 0000 0000 803f 0000 803f 0000 0000
00000200: 0000 0000 0000 0000 0000 803f 0000 803f
00000210: 0000 0000 0000 0000 0000 0000 0000 803f
00000220: 0000 803f 0000 0000 0000 0000 0000 0000
00000230: 0000 803f 0000 803f 0000 0000 0000 0000
00000240: 0000 0000 0000 803f 0000 803f 0000 0000
00000250: 0000 0000 0000 0000 0000 803f 0000 803f
00000260: 0000 0000 0000 0000 0000 0000 0000 803f
00000270: 0000 803f 0000 0000 0000 0000 0000 0000
00000280: 0000 803f 0000 803f 0000 0000 0000 0000
00000290: 0000 0000 0000 803f 0000 803f 0000 0000
000002a0: 0000 0000 0000 0000 0000 803f 0000 803f
000002b0: 0000 0000 0000 0000 0000 0000 0000 803f
000002c0: 0000 803f 0000 0000 0000 0000 0000 0000
000002d0: 0000 803f 0000 803f 0000 0000 0000 0000
000002e0: 0000 0000 0000 803f 0000 803f 0000 0000
000002f0: 0000 0000 0000 0000 0000 803f 0000 803f
00000300: 0000 0000 0000 0000 0000 0000 0000 803f
00000310: 0000 803f 0000 0000 0000 0000 0000 0000
00000320: 0000 803f 0000 803f 0000 803f 0000 0000
00000330: 0000 0000 0000 803f 0000 803f 0000 803f
00000340: 0000 0000 0000 0000 0000 803f 0000 803f
00000350: 0000 803f 0000 0000 0000 0000 0000 803f
00000360: 0000 803f 0000 803f 0000 0000 0000 0000
00000370: 0000 803f 0000 803f 0000 803f 0000 0000
00000380: 0000 0000 0000 803f 0000 803f 0000 803f
00000390: 0000 0000 0000 0000 0000 803f 0000 803f
000003a0: 0000 803f 0000 0000 0000 0000 0000 803f
000003b0: 0000 803f 0000 803f 0000 0000 0000 0000
000003c0: 0000 803f 0000 803f 0000 803f 0000 0000
000003d0: 0000 0000 0000 803f 0000 803f 0000 803f
000003e0: 0000 0000 0000 0000 0000 803f 0000 803f
000003f0: 0000 803f 0000 0000 0000 0000 0000 803f

net.0.net.3.weight f4 [12, 100]
3.828489e-37 3.3791833e-37 2.1796527e-37 -5.9354734e-37 3.2153565e-37 4.63653e-37 2.5648098e-37 2.292889e-37
3.6485225e-37 -3.4864171e-37 5.149835e-37 6.076096e-37 -6.1468964e-37 -6.1551383e-37 4.3675316e-37 -6.085446e-38
1.2992153e-37 -3.4394534e-38 -9.127869e-38 3.9400737e-37 -6.876934e-38 -4.8054834e-37 5.9008687e-37 -1.3168508e-37
2.083477e-37 -8.0595177e-38 -1.9219542e-37 -5.9840103e-37 -9.521916e-38 -5.638142e-37 1.0623417e-37 4.841442e-37
3.1411697e-37 -6.0072046e-37 3.8730769e-38 2.9950983e-38 3.0928473e-38 5.0528634e-37 -6.737537e-37 4.0593089e-38
-6.391165e-37 -4.8302103e-37 4.7938775e-37 2.1043597e-37 -5.058679e-37 4.3970156e-38 -8.9088357e-38 1.3001042e-37
-1.5616494e-37 4.5965267e-37 4.3797796e-37 -3.1893266e-37 -3.4262333e-37 -5.9260065e-37 3.917693e-38 -2.1951116e-37
4.8512643e-37 -2.890769e-38 -1.1835961e-37 -5.206592e-37 -3.418799e-37 -3.3441174e-37 9.248589e-38 -2.4087374e-37
3.5237629e-38 5.3296e-37 2.596999e-38 2.695766e-37 -2.784411e-38 6.706205e-37 -3.743361e-37 -3.2101708e-37
6.7724396e-37 -4.656325e-37 -3.1495598e-37 5.15397e-37 9.0917875e-38 1.6533388e-37 -3.2135193e-37 -3.312309e-37
-6.0200993e-37 4.9167155e-37 -2.0265392e-37 -3.4231874e-37 -2.8358308e-37 1.3514163e-37 3.1028945e-37 4.868863e-37
4.825352e-37 -1.9904842e-37 4.995401e-37 -5.927187e-37 -5.9990704e-37 6.4878056e-37 -4.865777e-37 -1.1000139e-37
-4.2116548e-37 -4.1119915e-38 1.3857947e-37 -6.4128234e-37 0.025492316 1.4668523e-37 -3.2605194e-38 3.8735836e-37
4.8239823e-37 -0.057531588 2.5442287e-37 -4.252692e-37 -5.3781153e-37 3.4802902e-37 -0.073270604 -4.87119e-37
-8.6449353e-38 -4.41348e-37 4.8748214e-38 -0.03285343 3.6748776e-37 -3.8520686e-38 4.0716756e-37 2.8101669e-37
2.8329692e-08 2.9243973e-37 -4.8871156e-37 -3.992559e-37 2.516003e-37 0.020021193 2.5602704e-38 -8.7643467e-38
-3.4476128e-37 -4.048719e-37 0.0057243286 -1.338564e-38 2.5438036e-37 -1.5987533e-37 5.0728556e-37 -0.029139495
2.7672371e-37 -4.751836e-37 -5.925474e-37 -4.795574e-37 0.031733543 -4.488178e-38 -4.9700294e-37 -6.060638e-38
-4.489163e-37 0.18382324 -2.761166e-37 -1.1116837e-38 -5.8238574e-37 1.8357413e-37 0.002225149 -8.930307e-39
6.723749e-37 1.4179199e-37 -2.0983839e-38 0.051762827 -2.187494e-37 -3.0466791e-37 3.1905296e-38 -1.7130351e-37
-0.0023031884 -2.5191001e-37 9.457773e-38 3.3537825e-37 6.356e-37 -0.13153946 -3.4675415e-37 2.4982616e-37
3.1490248e-37 3.933331e-37 0.022110797 4.4097006e-37 5.703737e-37 -2.0921852e-37 6.277078e-37 -0.03524759
-4.9655193e-37 -1.0016546e-37 -1.5900326e-37 1.5596947e-37 0.14034262 3.551544e-37 2.4121907e-37 -3.6008007e-37
-2.1588886e-38 0.06312055 -8.4764286e-38 6.3903784e-37 8.001857e-38 2.911864e-37 0.061067652 -1.3125954e-37
5.085301e-37 -1.4686332e-37 6.610828e-37 -0.029994342 -3.91352e-37 3.6605763e-37 1.7015609e-37 1.7014712e-38
0.042362824 -0.07873219 4.2408184e-37 1.9121818e-37 2.0719187e-37 -0.0070493803 4.4301663e-37 2.78778e-37
-2.1186736e-37 5.7735515e-37 -0.020667287 -0.073063664 -3.0816403e-38 4.9606665e-37 -5.147504e-38 -0.0021155132
-0.022021383 -1.5013052e-38 5.565989e-38 -5.4647376e-37 -0.00017893198 0.01228645 3.2928965e-37 3.1068018e-37
5.214379e-37 0.036666833 0.027870802 -9.889379e-38 5.575424e-37 -4.4485363e-38 -0.0014323168 -0.029742016
4.7463167e-37 5.9993193e-37 -4.9607916e-37 -0.024232944 0.011574383 -2.4325301e-37 -2.088859e-37 -1.6056312e-37
0.07377526 -6.7345275e-31 -1.2698923e-37 -7.1583213e-38 -1.0787284e-37 0.28349945 0.120250955 6.3101057e-37
-6.3629004e-37 -6.623637e-37 -0.0010741648 -0.71770775 1.6357072e-37 -1.614114e-37 -4.1963087e-37 -0.05557419
00000000: d846 0203 adf9 e502 e856 9402 44f9 4983
00000010: 69d3 da02 dfc5 1d03 4a8d ae02 c30b 9c02
00000020: 3a4e f802 f445 ed82 643d 2f03 43c2 4e03
00000030: 052b 5183 d172 5183 919e 1403 5ea9 a581
00000040: 0cd7 3002 fc42 3b81 f67b f881 e212 0603
00000050: 3c35 bb81 aa85 2383 d1cb 4803 8e3d 3382
00000060: 4acb 8d02 a466 db81 2acd 8282 15a0 4b83
00000070: 099b 0182 25db 3f83 3599 1002 e8be 2403
00000080: e5c6 d502 226a 4c83 d0de 5201 9411 2301
00000090: 0064 2801 a6f0 2b03 3a44 6583 8202 5d01
000000a0: e67a 5983 115d 2483 9020 2303 1e37 8f02
000000b0: 4f23 2c83 7465 6f01 8685 f281 05f6 3002
000000c0: 8a8f 5482 6569 1c03 4309 1503 e80d d982
000000d0: 672d e982 cca6 4983 ac4c 5501 3d64 9582
000000e0: 7914 2503 7063 1d81 4e1a 2182 d02b 3183
000000f0: e1ab e882 be96 e382 42c5 fb01 20ee a382
00000100: 16da 3f01 5d5b 3503 e264 0d01 de76 b702
00000110: 0699 1781 4933 6403 8cc2 fe82 1079 da82
00000120: 4574 6603 5072 1e83 1259 d682 6961 2f03
00000130: 8380 f701 730a 6102 67b3 da82 906c e182
00000140: 76da 4c83 a24e 2703 4beb 8982 56f8 e882
00000150: 24ff c082 fcf1 3702 0c2c d302 c7ad 2503
00000160: bf32 2403 2077 8782 14fc 2903 15b1 4983
00000170: 4623 4c83 c2c4 5c03 e592 2583 e4b9 1582
00000180: b050 0f83 cce0 5f81 e69f 3c02 9237 5a83
00000190: 43d5 d03c 58a8 4702 0285 3181 accf 0303
000001a0: d026 2403 3ea6 6bbd b726 ad02 2cb6 1083
000001b0: fe01 3783 35db ec02 e60e 96bd 0dc2 2583
000001c0: 6856 eb81 d52e 1683 8cb4 8401 5191 06bd
000001d0: 6619 fa02 00ba 5181 4c8d 0a03 0340 bf02
000001e0: a759 f332 3006 c702 c84c 2683 18dc 0783
000001f0: f43a ab02 7c03 a43c f664 0b01 9596 ee81
00000200: e3a1 ea82 51c5 0983 2693 bb3b b8c1 9180
00000210: 4f1f ad02 6c9c 5982 ce9e 2c03 f3b5 eebc
00000220: 1254 bc02 54b2 2183 29a2 4983 572f 2383
00000230: 08fb 013d 125c 7481 101f 2983 7cfc a481
00000240: 20c2 1883 293c 3c3e 4cea bb82 380d 7980
00000250: f42c 4683 40de 7902 ced3 113b 103e 6180
00000260: 1dcc 6403 4cff 4002 687e e480 4205 543d
00000270: 85df 9482 a358 cf82 7eb5 2d01 902a 6982
00000280: 17f1 16bb ea70 ab82 87bb 0002 223f e402
00000290: 9248 5803 48b2 06be 18fd eb82 db05 aa02
000002a0: c04f d602 25d8 0503 b421 b53c e90d 1603
000002b0: 8f16 4203 0263 8e82 1099 5503 c75f 10bd
000002c0: c6f7 2883 9256 0882 8d6c 5882 6e4b 5402
000002d0: fab5 0f3e a0b4 f102 4a2a a402 cc0e f582
000002e0: 0815 eb80 5945 813d 16c0 e681 0c74 5903
000002f0: ced4 d901 d32b c602 1322 7a3d 46a9 3282
00000300: 380b 2d03 66e6 4782 6ff4 6003 b2b6 f5bc
00000310: 912b 0583 3c20 f902 be9a 6702 1846 b900
00000320: a484 2d3d 583e a1bd bd4e 1003 e822 8202
00000330: ea01 8d02 7dfe e6bb 31c0 1603 fab9 bd02
00000340: 8030 9082 ba76 4403 714e a9bc 67a2 95bd
00000350: ccc7 2781 80cd 2803 de20 8c81 6ca4 0abb
00000360: 3066 b4bc 487a a380 4885 9701 94f4 3983
00000370: b09f 3bb9 1b4d 493c 591a e002 1f70 d302
00000380: a66f 3103 f62f 163d 4f51 e43c 759b 0682
00000390: cbb8 3d03 8c33 7281 94bc bbba 87a5 f3bc
000003a0: 4082 2103 7125 4c03 97ce 2883 2b84 c6bc
000003b0: 7ba2 3d3c a78c a582 0e29 8e82 158c 5a82
000003c0: 7c17 973d 448c 5a8d 4ad9 2c82 38de c281
000003d0: 33d4 1282 d726 913e 2246 f63d c6b8 5603
000003e0: ae84 5883 0464 6183 fdca 8cba b2bb 37bf
000003f0: 14a4 5e02 aab3 5b82 01cb 0e83 c3a1 63bd

net.0.net.3.bias f4 [12]
0.07096807 -0.022142963 0.0606876 0.022943998 -0.08441016 -0.041877277 -0.011398445 -0.0062546087
0.06986837 0.070047416 0.009332286 0.043437585
00000000: b557 913d 2965 b5bc 9093 783d 0df5 bb3c
00000010: 3cdf acbd 8287 2bbd 8bc0 3abc 76f3 ccbb
00000020: 2617 8f3d 0575 8f3d 72e6 183c 9ceb 313d

net.0.net.3.mask f4 [12, 100]
0.0 0.0 0.0 0.0 0.0 0.0 0.0 0.0
0.0 0.0 0.0 0.0 0.0 0.0 0.0 0.0
0.0 0.0 0.0 0.0 0.0 0.0 0.0 0.0
0.0 0.0 0.0 0.0 0.0 0.0 0.0 0.0
0.0 0.0 0.0 0.0 0.0 0.0 0.0 0.0
0.0 0.0 0.0 0.0 0.0 0.0 0.0 0.0
0.0 0.0 0.0 0.0 0.0 0.0 0.0 0.0
0.0 0.0 0.0 0.0 0.0 0.0 0.0 0.0
0.0 0.0 0.0 0.0 0.0 0.0 0.0 0.0
0.0 0.0 0.0 0.0 0.0 0.0 0.0 0.0
0.0 0.0 0.0 0.0 0.0 0.0 0.0 0.0
0.0 0.0 0.0 0.0 0.0 0.0 0.0 0.0
0.0 0.0 0.0 0.0 1.0 0.0 0.0 0.0
0.0 1.0 0.0 0.0 0.0 0.0 1.0 0.0
0.0 0.0 0.0 1.0 0.0 0.0 0.0 0.0
1.0 0.0 0.0 0.0 0.0 1.0 0.0 0.0
0.0 0.0 1.0 0.0 0.0 0.0 0.0 1.0
0.0 0.0 0.0 0.0 1.0 0.0 0.0 0.0
0.0 1.0 0.0 0.0 0.0 0.0 1.0 0.0
0.0 0.0 0.0 1.0 0.0 0.0 0.0 0.0
1.0 0.0 0.0 0.0 0.0 1.0 0.0 0.0
0.0 0.0 1.0 0.0 0.0 0.0 0.0 1.0
0.0 0.0 0.0 0.0 1.0 0.0 0.0 0.0
0.0 1.0 0.0 0.0 0.0 0.0 1.0 0.0
0.0 0.0 0.0 1.0 0.0 0.0 0.0 0.0
1.0 1.0 0.0 0.0 0.0 1.0 1.0 0.0
0.0 0.0 1.0 1.0 0.0 0.0 0.0 1.0
1.0 0.0 0.0 0.0 1.0 1.0 0.0 0.0
0.0 1.0 1.0 0.0 0.0 0.0 1.0 1.0
0.0 0.0 0.0 1.0 1.0 0.0 0.0 0.0
1.0 1.0 0.0 0.0 0.0 1.0 1.0 0.0
0.0 0.0 1.0 1.0 0.0 0.0 0.0 1.0
00000000: 0000 0000 0000 0000 0000 0000 0000 0000
00000010: 0000 0000 0000 0000 0000 0000 0000 0000
00000020: 0000 0000 0000 0000 0000 0000 0000 0000
00000030: 0000 0000 0000 0000 0000 0000 0000 0000
00000040: 0000 0000 0000 0000 0000 0000 0000 0000
00000050: 0000 0000 0000 0000 0000 0000 0000 0000
00000060: 0000 0000 0000 0000 0000 0000 0000 0000
00000070: 0000 0000 0000 0000 0000 0000 0000 0000
00000080: 0000 0000 0000 0000 0000 0000 0000 0000
00000090: 0000 0000 0000 0000 0000 0000 0000 0000
000000a0: 0000 0000 0000 0000 0000 0000 0000 0000
000000b0: 0000 0000 0000 0000 0000 0000 0000 0000
000000c0: 0000 0000 0000 0000 0000 0000 0000 0000
000000d0: 0000 0000 0000 0000 0000 0000 0000 0000
000000e0: 0000 0000 0000 0000 0000 0000 0000 0000
000000f0: 0000 0000 0000 0000 0000 0000 0000 0000
00000100: 0000 0000 0000 0000 0000 0000 0000 0000
00000110: 0000 0000 0000 0000 0000 0000 0000 0000
00000120: 0000 0000 0000 0000 0000 0000 0000 0000
00000130: 0000 0000 0000 0000 0000 0000 0000 0000
00000140: 0000 0000 0000 0000 0000 0000 0000 0000
00000150: 0000 0000 0000 0000 0000 0000 0000 0000
00000160: 0000 0000 0000 0000 0000 0000 0000 0000
00000170: 0000 0000 0000 0000 0000 0000 0000 0000
00000180: 0000 0000 0000 0000 0000 0000 0000 0000
00000190: 0000 803f 0000 0000 0000 0000 0000 0000
000001a0: 0000 0000 0000 803f 0000 0000 0000 0000
000001b0: 0000 0000 0000 0000 0000 803f 0000 0000
000001c0: 0000 0000 0000 0000 0000 0000 0000 803f
000001d0: 0000 0000 0000 0000 0000 0000 0000 0000
000001e0: 0000 803f 0000 0000 0000 0000 0000 0000
000001f0: 0000 0000 0000 803f 0000 0000 0000 0000
00000200: 0000 0000 0000 0000 0000 803f 0000 0000
00000210: 0000 0000 0000 0000 0000 0000 0000 803f
00000220: 0000 0000 0000 0000 0000 0000 0000 0000
00000230: 0000 803f 0000 0000 0000 0000 0000 0000
00000240: 0000 0000 0000 803f 0000 0000 0000 0000
00000250: 0000 0000 0000 0000 0000 803f 0000 0000
00000260: 0000 0000 0000 0000 0000 0000 0000 803f
00000270: 0000 0000 0000 0000 0000 0000 0000 0000
00000280: 0000 803f 0000 0000 0000 0000 0000 0000
00000290: 0000 0000 0000 803f 0000 0000 0000 0000
000002a0: 0000 0000 0000 0000 0000 803f 0000 0000
000002b0: 0000 0000 0000 0000 0000 0000 0000 803f
000002c0: 0000 0000 0000 0000 0000 0000 0000 0000
000002d0: 0000 803f 0000 0000 0000 0000 0000 0000
000002e0: 0000 0000 0000 803f 0000 0000 0000 0000
000002f0: 0000 0000 0000 0000 0000 803f 0000 0000
00000300: 0000 0000 0000 0000 0000 0000 0000 803f
00000310: 0000 0000 0000 0000 0000 0000 0000 0000
00000320: 0000 803f 0000 803f 0000 0000 0000 0000
00000330: 0000 0000 0000 803f 0000 803f 0000 0000
00000340: 0000 0000 0000 0000 0000 803f 0000 803f
00000350: 0000 0000 0000 0000 0000 0000 0000 803f
00000360: 0000 803f 0000 0000 0000 0000 0000 0000
00000370: 0000 803f 0000 803f 0000 0000 0000 0000
00000380: 0000 0000 0000 803f 0000 803f 0000 0000
00000390: 0000 0000 0000 0000 0000 803f 0000 803f
000003a0: 0000 0000 0000 0000 0000 0000 0000 803f
000003b0: 0000 803f 0000 0000 0000 0000 0000 0000
000003c0: 0000 803f 0000 803f 0000 0000 0000 0000
000003d0: 0000 0000 0000 803f 0000 803f 0000 0000
000003e0: 0000 0000 0000 0000 0000 803f 0000 803f
000003f0: 0000 0000 0000 0000 0000 0000 0000 803f

net.1.base_dist_mean f4 [6]
0.0 0.0 0.0 0.0 0.0 0.0
00000000: 0000 0000 0000 0000 0000 0000 0000 0000
00000010: 0000 0000 0000 0000

net.1.base_dist_var f4 [6]
1.0 1.0 1.0 1.0 1.0 1.0
00000000: 0000 803f 0000 803f 0000 803f 0000 803f
00000010: 0000 803f 0000 803f
